…
ot;</span> + <span class="built_in">str</span>(y_pred))</span><br><span class="line">plt.tight_layout(rect=[<span class="number">0</span>,<span class="number">0</span>,<span class="number">1</span>,<span class="number">0.98</span>])</span><br><span class="line">plt.show()</span><br></pre></td></tr></table></figure>
<p>结果如下：</p>
<pre><code>Model: &quot;sequential_9&quot;
_________________________________________________________________
Layer (type)                 Output Shape              Param #   
=================================================================
conv2d_27 (Conv2D)           (None, 28, 28, 6)         156       
_________________________________________________________________
max_pooling2d_18 (MaxPooling (None, 14, 14, 6)         0         
_________________________________________________________________
conv2d_28 (Conv2D)           (None, 10, 10, 16)        2416      
_________________________________________________________________
max_pooling2d_19 (MaxPooling (None, 5, 5, 16)          0         
_________________________________________________________________
conv2d_29 (Conv2D)           (None, 1, 1, 120)         48120     
_________________________________________________________________
flatten_9 (Flatten)          (None, 120)               0         
_________________________________________________________________
dense_18 (Dense)             (None, 84)                10164     
_________________________________________________________________
dense_19 (Dense)             (None, 10)                850       
=================================================================
Total params: 61,706
Trainable params: 61,706
Non-trainable params: 0
_________________________________________________________________
Epoch 1/5
750/750 [==============================] - 23s 29ms/step - loss: 1.1872 - accuracy: 0.6143 - val_loss: 0.3047 - val_accuracy: 0.9153
Epoch 2/5
750/750 [==============================] - 22s 29ms/step - loss: 0.2160 - accuracy: 0.9393 - val_loss: 0.1392 - val_accuracy: 0.9581
…
)</span><br><span class="line"><span class="comment">#全连接层3（输出层）</span></span><br><span class="line">model.add(tf.keras.layers.Dense(<span class="number">1000</span>,activation=<span class="string">&quot;softmax&quot;</span>))</span><br><span class="line">model.summary()</span><br></pre></td></tr></table></figure>
<p>结果如下：</p>
<pre><code>Model: &quot;sequential_14&quot;
_________________________________________________________________
Layer (type)                 Output Shape              Param #   
=================================================================
conv2d_56 (Conv2D)           (None, 224, 244, 64)      1792      
_________________________________________________________________
conv2d_57 (Conv2D)           (None, 224, 244, 64)      36928     
_________________________________________________________________
max_pooling2d_32 (MaxPooling (None, 112, 122, 64)      0         
_________________________________________________________________
conv2d_58 (Conv2D)           (None, 112, 122, 128)     73856     
_________________________________________________________________
conv2d_59 (Conv2D)           (None, 112, 122, 128)     147584    
_________________________________________________________________
max_pooling2d_33 (MaxPooling (None, 56, 61, 128)       0         
_________________________________________________________________
conv2d_60 (Conv2D)           (None, 56, 61, 256)       295168    
_________________________________________________________________
conv2d_61 (Conv2D)           (None, 56, 61, 256)       590080    
_________________________________________________________________
conv2d_62 (Conv2D)           (None, 56, 61, 256)       590080    
_________________________________________________________________
max_pooling2d_34 (MaxPooling (None, 28, 30, 256)       0         
_________________________________________________________________
conv2d_63 (Conv2D)           (None, 28, 30, 512)       1180160   
_________________________________________________________________
conv2d_64 (Conv2D)           (None, 28, 30, 512)       2359808   
_________________________________________________________________
conv2d_65 (Conv2D)           (None, 28, 30, 512)       2359808   
_________________________________________________________________
max_pooling2d_35 (MaxPooling (None, 14, 15, 512)       0         
_________________________________________________________________
conv2d_66 (Conv2D)           (None, 14, 15, 512)       2359808   
_________________________________________________________________
conv2d_67 (Conv2D)           (None, 14, 15, 512)       2359808   
_________________________________________________________________
conv2d_68 (Conv2D)           (None, 14, 15, 512)       2359808   
_________________________________________________________________
max_pooling2d_36 (MaxPooling (None, 7, 7, 512)         0         
_________________________________________________________________
flatten_14 (Flatten)         (None, 25088)             0         
_________________________________________________________________
dense_30 (Dense)             (None, 4096)              102764544 
_________________________________________________________________
dropout_4 (Dropout)          (None, 4096)              0         
_________________________________________________________________
dense_31 (Dense)             (None, 4096)              16781312  
_________________________________________________________________
dropout_5 (Dropout)          (None, 4096)              0         
_________________________________________________________________
dense_32 (Dense)             (None, 1000)              4097000   
=================================================================
Total params: 138,357,544
Trainable params: 138,357,544
Non-trainable params: 0
_________________________________________________________________
</code></pre><hr>
<h1 id="GoogLeNet神经网络"><a href="#GoogLeNet神经网络" class="headerlink" title="GoogLeNet神经网络"></a>GoogLeNet神经网络</h1><h2 id="1-Inception-Module的初代"><a href="#1-Inception-Mo
…
ot;</span> + <span class="built_in">str</span>(y_pred))</span><br><span class="line">plt.tight_layout(rect=[<span class="number">0</span>,<span class="number">0</span>,<span class="number">1</span>,<span class="number">0.98</span>])</span><br><span class="line">plt.show()</span><br></pre></td></tr></table></figure>
<p>结果如下：</p>
<pre><code>Model: &quot;sequential_2&quot;
_________________________________________________________________
Layer (type)                 Output Shape              Param #   
=================================================================
conv2d_4 (Conv2D)            (None, 28, 28, 16)        160       
_________________________________________________________________
max_pooling2d_4 (MaxPooling2 (None, 14, 14, 16)        0         
_________________________________________________________________
conv2d_5 (Conv2D)            (None, 14, 14, 32)        4640      
_________________________________________________________________
max_pooling2d_5 (MaxPooling2 (None, 7, 7, 32)          0         
_________________________________________________________________
flatten_2 (Flatten)          (None, 1568)              0         
_________________________________________________________________
dense_4 (Dense)              (None, 128)               200832    
_________________________________________________________________
dense_5 (Dense)              (None, 10)                1290      
=================================================================
Total params: 206,922
Trainable params: 206,922
Non-trainable params: 0
_________________________________________________________________
Epoch 1/5
750/750 [==============================] - 25s 32ms/step - loss: 0.2131 - sparse_categorical_accuracy: 0.9379 - val_loss: 0.0909 - val_sparse_categorical_accuracy: 0.9721
Epoch 2/5
…
ot;</span> + <span class="built_in">str</span>(y_pred))</span><br><span class="line">plt.tight_layout(rect=[<span class="number">0</span>,<span class="number">0</span>,<span class="number">1</span>,<span class="number">0.98</span>])</span><br><span class="line">plt.show()</span><br></pre></td></tr></table></figure>
<p>结果如下：</p>
<pre><code>Model: &quot;sequential_3&quot;
_________________________________________________________________
Layer (type)                 Output Shape              Param #   
=================================================================
conv2d_6 (Conv2D)            (None, 32, 32, 16)        448       
_________________________________________________________________
conv2d_7 (Conv2D)            (None, 32, 32, 16)        2320      
_________________________________________________________________
max_pooling2d_6 (MaxPooling2 (None, 16, 16, 16)        0         
_________________________________________________________________
dropout (Dropout)            (None, 16, 16, 16)        0         
_________________________________________________________________
conv2d_8 (Conv2D)            (None, 16, 16, 32)        4640      
_________________________________________________________________
conv2d_9 (Conv2D)            (None, 16, 16, 32)        9248      
_________________________________________________________________
max_pooling2d_7 (MaxPooling2 (None, 8, 8, 32)          0         
_________________________________________________________________
dropout_1 (Dropout)          (None, 8, 8, 32)          0         
_________________________________________________________________
flatten_3 (Flatten)          (None, 2048)              0         
_________________________________________________________________
dropout_2 (Dropout)          (None, 2048)              0         
_________________________________________________________________
dense_6 (Dense)              (None, 128)               262272    
_________________________________________________________________
dropout_3 (Dropout)          (None, 128)               0         
_________________________________________________________________
dense_7 (Dense)              (None, 10)                1290      
=================================================================
Total params: 280,218
Trainable params: 280,218
Non-trainable params: 0
_________________________________________________________________
Epoch 1/10
625/625 [==============================] - 76s 120ms/step - loss: 1.6868 - sparse_categorical_accuracy: 0.3793 - val_loss: 1.3407 - val_sparse_categorical_accuracy: 0.5164
Epoch 2/10
…
